cv/seminar03/input/kernel.npy (npy, 992 bytes, 1 tensors)

array f8 [3, 3, 4, 3]
00000000: 3d2e 54b8 baf8 f8bf e246 88cb ca88 aa3f
00000010: b36d 2e30 bd34 c53f 9517 634f 310d f0bf
00000020: c9c2 d960 524b 01c0 8986 2d8e c422 f5bf
00000030: 999c a31e a3a6 eb3f b12b 445b d41e 0240
00000040: fe75 6b54 94b3 e13f 2e47 d545 9a93 f73f
00000050: d47b 3be1 9251 c7bf d977 455e 9ae7 b33f
00000060: a381 8876 0d77 a63f 646b c4dc 0684 c8bf
00000070: 1ad5 ac33 1b44 0540 b089 b031 1b16 ddbf
00000080: fb63 e8e2 8170 fa3f 6382 30f1 4b8f c7bf
00000090: 758e 7e05 956e c7bf 9322 dc86 1b0a f13f
000000a0: c3fd eafa d83d d03f 2f33 0e64 73f9 f8bf
000000b0: 84c6 139e dc5c c83f b9ef 2c92 68c7 f2bf
000000c0: 3f65 c763 d215 7dbf dc84 bb2a bd17 f03f
000000d0: e4c7 8f93 aeab d7bf f4f8 6fe4 da4f d6bf
000000e0: 663b 819b 5124 e03f 225b 17ce 85f6 f3bf
000000f0: 5613 acb1 fa9f e43f 12d6 d09f 6575 a23f
00000100: 0bf4 8bc5 ae16 f4bf 2c08 91c2 bb3b f03f
00000110: 304e 4e3f df0a eebf 64a5 a16c 7b3a a43f
00000120: 0588 ed8f c202 f2bf 11b5 fd1b 5d86 d7bf
00000130: eaeb 45a0 2049 c9bf 8e8a 279c 2b14 f23f
00000140: dfbc 726d a984 d3bf 927e 3460 d6de e8bf
00000150: 3167 9f00 6fd9 f3bf 0217 f2cd a953 fa3f
00000160: 23a8 e359 648c f93f a1f1 e3ff 2a8c fb3f
00000170: ce8e cbba 777f edbf 772f c0fe 831b e7bf
00000180: c99e ee08 d4cb c0bf 315f 0016 10b7 e33f
00000190: 0bdb 05e1 b525 fb3f 0fe6 f00e c2ae d43f
000001a0: 9130 98f5 6f6a d9bf 5700 b38f 2480 dcbf
000001b0: 79c0 cec4 f2ce b2bf 75a5 5184 88cf dfbf
000001c0: a3c3 3c3d 746f ec3f 926c 9930 28ae e0bf
000001d0: 00f4 949b c7d8 fdbf e5aa 6f95 118a ebbf
000001e0: 3b4c 0dd6 e943 e5bf f478 b7d3 95df c73f
000001f0: 2a0b de69 884c f63f 3931 fba9 8dff f83f
00000200: ef50 85dc 92b5 e2bf 93c8 02fa 66ff d03f
00000210: 2f9d 5a78 cf13 f5bf ecf2 db7a 652c e93f
00000220: a155 c8b9 6056 0040 b448 992d 6fe3 f1bf
00000230: 5149 c747 95fa f7bf 2f7f cb1e 6646 debf
00000240: 3efc b1c9 b81e f5bf a149 e908 f714 d4bf
00000250: db1f 2d80 ec03 e93f 6f21 4c7d 20fc db3f
00000260: 5cff 4e37 57c8 c43f 6dea d570 96bd e73f
00000270: 0537 8aac eac1 ebbf 7e76 2ab7 f368 f7bf
00000280: 394e ca2c 50ed debf b710 2837 45d4 f83f
00000290: 0fbe a814 cd81 d33f 7492 a4cc 68e8 f73f
000002a0: 53a1 e3a8 1415 d2bf a95b 691e 054f f93f
000002b0: 5455 952a a95c d13f 90d2 2045 a064 f53f
000002c0: 35df 0edd 8f99 ca3f fda9 6683 53c0 e9bf
000002d0: d80b 8284 a81c e2bf 560f e35e dac7 f13f
000002e0: aecd fed2 bee6 ee3f bb19 0772 e19c b7bf
000002f0: d7c1 7371 d0f3 48bf 55a7 f8ce a969 e4bf
00000300: 8d91 afa4 7727 ed3f 4fd7 c44e 4e9f 0040
00000310: b574 9aa4 6780 dfbf 2d74 21e2 739f f3bf
00000320: 505b 2cdd 7c93 f4bf f981 4e5a c93c e4bf
00000330: 850c 2eab fc9c e3bf f1b7 6f53 eba0 d1bf
00000340: 9dc3 ada1 8cae bebf 18d9 c408 20c7 e63f
00000350: d9af e11b ce30 d73f 15b9 f00e 2470 b83f
-1.5607249451012557 0.0518248914196542 0.16567196705441986 -1.0032208539064176 -2.1617782179313036 -1.3209882310697216 0.8640914534015735 2.265053475397018
0.5531713150809876 1.4735357978683612 -0.18217693326638928 0.07775273133799433 0.043877049178493686 -0.1915291383710055 2.658255008422782 -0.4544742570161828
1.6524676192841514 -0.1840605666811995 -0.18306219833640439 1.0649676578488296 0.2537748766298728 -1.5609010609070528 0.1903339168416559 -1.1736837110502008
-0.007100889048581137 1.0057956380117536 -0.3698536339790037 -0.34862396534289464 0.5044334447100993 -1.2476862001837579 0.6445287199172565 0.03605191779972129
-1.255537768999832 1.014583358788978 -0.9388271557276706 0.03950868321482906 -1.1256738302404312 -0.3675759099340477 -0.19754417253338313 1.1299244022162926
-0.3049720352964424 -0.7772018317227369 -1.2405843757937414 1.6454256100418552 1.5967753897953194 1.721720695087335 -0.9218100212424021 -0.7221088386154254
-0.13122034488809778 0.61609653756293 1.6967066564517974 0.323166384306746 -0.397121419752474 -0.44532121689917886 -0.07347028069375651 -0.49704182550211523
0.8886052318613235 -0.5212593983846026 -1.8654247357765144 -0.8606040877033051 -0.6645402126981773 0.18651078069428417 1.3936847815936724 1.5623909606830024
-0.5846647555395331 0.2655885163795883 -1.3173365308119391 0.7866694831460257 2.0421766771566614 -1.1180259495927602 -1.4986775211187544 -0.4730468083125627
-1.320000446197596 -0.3137796008133141 0.7817289832537385 0.4372636054618146 0.16236391258825733 0.7418930248089289 -0.8674214715881311 -1.4631230502049273
-0.48323444723175474 1.5518238215018252 0.30479743020529865 1.4942405694829661 -0.2825366639431383 1.5817919910384524 0.2712805667736877 1.337066907913286
0.2078113393197271 -0.8047273222376244 -0.5659983242079489 1.1112922388574211 0.9656671639444789 -0.09223755868797572 -0.0007614867962769067 -0.6378983538063304
0.91106779256056 2.0777860788174745 -0.49221221041245694 -1.2264288743238112 -1.2860077514248651 -0.632420231228081 -0.6129134505612376 -0.2754467310722922
-0.11985091159091472 0.7118072673099816 0.3623538276940486 0.0954611336207772
